…
019,"user":{"displayName":"김태식","userId":"11264777984025639378"}},"outputId":"27116fcc-c560-473c-d692-2ffde5e71afb"},"execution_count":null,"outputs":[{"output_type":"stream","name":"stdout","text":["Model: \"model\"\n","_________________________________________________________________\n"," Layer (type)                Output Shape              Param #   \n","=================================================================\n"," input_1 (InputLayer)        [(None,)]                 0         \n","                                                                 \n"," expand_last_dim (ExpandLas  (None, 1)                 0         \n"," tDim)                                                           \n","                                                                 \n"," text_vectorization (TextVe  (None, 512)               0         \n"," ctorization)                                                    \n","                                                                 \n"," embedding (Embedding)       (None, 512, 64)           320064    \n","                                                                 \n"," dropout (Dropout)           (None, 512, 64)           0         \n","                                                                 \n"," conv1d (Conv1D)             (None, 508, 256)          82176     \n","                                                                 \n"," global_max_pooling1d (Glob  (None, 256)               0         \n"," alMaxPooling1D)                                                 \n","                                                                 \n"," dense (Dense)               (None, 256)               65792     \n","                                                                 \n"," re_lu (ReLU)                (None, 256)               0         \n","                                                                 \n"," dropout_1 (Dropout)         (None, 256)               0         \n","                                                                 \n"," dense_1 (Dense)             (None, 1)                 257       \n","                                                                 \n"," classification_head_1 (Act  (None, 1)                 0         \n"," ivation)                                                        \n","                                                                 \n","=================================================================\n","Total params: 468289 (1.79 MB)\n","Trainable params: 468289 (1.79 MB)\n","Non-trainable params: 0 (0.00 Byte)\n","______________________________________________________________
…
